…
43532288/43941136 [============================>.] - ETA: 0s
43769856/43941136 [============================>.] - ETA: 0s
43900928/43941136 [============================>.] - ETA: 0s
43941136/43941136 [==============================] - 48s 1us/step
Model: "model_3"
_________________________________________________________________
 Layer (type)                Output Shape              Param #   
=================================================================
 input_5 (InputLayer)        [(None, 224, 224, 3)]     0         
                                                                 
 efficientnetb3 (Functional  (None, 7, 7, 1536)        10783535  
 )                                                               
                                                                 
 global_average_pooling2d (  (None, 1536)              0         
 GlobalAveragePooling2D)                                         
                                                                 
 dense_7 (Dense)             (None, 512)               786944    
                                                                 
 batch_normalization (Batch  (None, 512)               2048      
 Normalization)                                                  
                                                                 
 dropout (Dropout)           (None, 512)               0         
                                                                 
 dense_8 (Dense)             (None, 256)               131328    
                                                                 
 batch_normalization_1 (Bat  (None, 256)               1024      
 chNormalization)                                                
                                                                 
 dropout_1 (Dropout)         (None, 256)               0         
                                                                 
 dense_9 (Dense)             (None, 128)               32896     
                                                                 
 batch_normalization_2 (Bat  (None, 128)               512       
 chNormalization)                                                
                                                                 
 dropout_2 (Dropout)         (None, 128)               0         
                                                                 
 dense_10 (Dense)            (None, 1)                 129       
                                                                 
=================================================================
Total params: 11738416 (44.78 MB)
Trainable params: 953089 (3.64 MB)
Non-trainable params: 10785327 (41.14 MB)
_________________________________________________________________
Epoch 1/30

 1/14 [=>............................] - ETA: 4:20 - loss: 0.9356 - accuracy: 0.4688 - auc: 0.5081
…
